__________________________________________________________________________________________________
Layer (type)                    Output Shape         Param #     Connected to                     
==================================================================================================
num_input (InputLayer)          (None, 15)           0                                            
__________________________________________________________________________________________________
nom_input0 (InputLayer)         (None, 9)            0                                            
__________________________________________________________________________________________________
nom_input1 (InputLayer)         (None, 7)            0                                            
__________________________________________________________________________________________________
nom_input2 (InputLayer)         (None, 623)          0                                            
__________________________________________________________________________________________________
nom_input3 (InputLayer)         (None, 9)            0                                            
__________________________________________________________________________________________________
concatenate_47 (Concatenate)    (None, 24)           0           num_input[0][0]                  
                                                                 nom_input0[0][0]                 
__________________________________________________________________________________________________
concatenate_48 (Concatenate)    (None, 22)           0           num_input[0][0]                  
                                                                 nom_input1[0][0]                 
__________________________________________________________________________________________________
concatenate_49 (Concatenate)    (None, 638)          0           num_input[0][0]                  
                                                                 nom_input2[0][0]                 
__________________________________________________________________________________________________
concatenate_50 (Concatenate)    (None, 24)           0           num_input[0][0]                  
                                                                 nom_input3[0][0]                 
__________________________________________________________________________________________________
nom_enc00 (Dense)               (None, 8)            200         concatenate_47[0][0]             
__________________________________________________________________________________________________
nom_enc10 (Dense)               (None, 6)            138         concatenate_48[0][0]             
__________________________________________________________________________________________________
nom_enc20 (Dense)               (None, 507)          323973      concatenate_49[0][0]             
__________________________________________________________________________________________________
nom_enc30 (Dense)               (None, 8)            200         concatenate_50[0][0]             
__________________________________________________________________________________________________
nom_enc01 (Dense)               (None, 6)            54          nom_enc00[0][0]                  
__________________________________________________________________________________________________
nom_enc11 (Dense)               (None, 5)            35          nom_enc10[0][0]                  
__________________________________________________________________________________________________
nom_enc21 (Dense)               (None, 390)          198120      nom_enc20[0][0]                  
__________________________________________________________________________________________________
nom_enc31 (Dense)               (None, 6)            54          nom_enc30[0][0]                  
__________________________________________________________________________________________________
concatenate_51 (Concatenate)    (None, 407)          0           nom_enc01[0][0]                  
                                                                 nom_enc11[0][0]                  
                                                                 nom_enc21[0][0]                  
                                                                 nom_enc31[0][0]                  
__________________________________________________________________________________________________
nom_jenc0 (Dense)               (None, 284)          115872      concatenate_51[0][0]             
__________________________________________________________________________________________________
nom_jmid (Dense)                (None, 162)          46170       nom_jenc0[0][0]                  
__________________________________________________________________________________________________
nom_jdec0 (Dense)               (None, 284)          46292       nom_jmid[0][0]                   
__________________________________________________________________________________________________
nom_dec01 (Dense)               (None, 6)            1710        nom_jdec0[0][0]                  
__________________________________________________________________________________________________
nom_dec11 (Dense)               (None, 5)            1425        nom_jdec0[0][0]                  
__________________________________________________________________________________________________
nom_dec21 (Dense)               (None, 390)          111150      nom_jdec0[0][0]                  
__________________________________________________________________________________________________
nom_dec31 (Dense)               (None, 6)            1710        nom_jdec0[0][0]                  
__________________________________________________________________________________________________
nom_dec02 (Dense)               (None, 8)            56          nom_dec01[0][0]                  
__________________________________________________________________________________________________
nom_dec12 (Dense)               (None, 6)            36          nom_dec11[0][0]                  
__________________________________________________________________________________________________
nom_dec22 (Dense)               (None, 507)          198237      nom_dec21[0][0]                  
__________________________________________________________________________________________________
nom_dec32 (Dense)               (None, 8)            56          nom_dec31[0][0]                  
__________________________________________________________________________________________________
concatenate_52 (Concatenate)    (None, 529)          0           nom_dec02[0][0]                  
                                                                 nom_dec12[0][0]                  
                                                                 nom_dec22[0][0]                  
                                                                 nom_dec32[0][0]                  
__________________________________________________________________________________________________
num_out (Dense)                 (None, 15)           7950        concatenate_52[0][0]             
__________________________________________________________________________________________________
nom_out0 (Dense)                (None, 9)            81          nom_dec02[0][0]                  
__________________________________________________________________________________________________
nom_out1 (Dense)                (None, 7)            49          nom_dec12[0][0]                  
__________________________________________________________________________________________________
nom_out2 (Dense)                (None, 623)          316484      nom_dec22[0][0]                  
__________________________________________________________________________________________________
nom_out3 (Dense)                (None, 9)            81          nom_dec32[0][0]                  
==================================================================================================
Total params: 1,370,133
Trainable params: 1,370,133
Non-trainable params: 0
__________________________________________________________________________________________________
