__________________________________________________________________________________________________
Layer (type)                    Output Shape         Param #     Connected to                     
==================================================================================================
num_input (InputLayer)          (None, 15)           0                                            
__________________________________________________________________________________________________
nom_input0 (InputLayer)         (None, 9)            0                                            
__________________________________________________________________________________________________
nom_input1 (InputLayer)         (None, 7)            0                                            
__________________________________________________________________________________________________
nom_input2 (InputLayer)         (None, 623)          0                                            
__________________________________________________________________________________________________
nom_input3 (InputLayer)         (None, 9)            0                                            
__________________________________________________________________________________________________
num_enc0 (Dense)                (None, 13)           208         num_input[0][0]                  
__________________________________________________________________________________________________
nom_enc00 (Dense)               (None, 8)            80          nom_input0[0][0]                 
__________________________________________________________________________________________________
nom_enc10 (Dense)               (None, 6)            48          nom_input1[0][0]                 
__________________________________________________________________________________________________
nom_enc20 (Dense)               (None, 507)          316368      nom_input2[0][0]                 
__________________________________________________________________________________________________
nom_enc30 (Dense)               (None, 8)            80          nom_input3[0][0]                 
__________________________________________________________________________________________________
num_enc1 (Dense)                (None, 10)           140         num_enc0[0][0]                   
__________________________________________________________________________________________________
nom_enc01 (Dense)               (None, 6)            54          nom_enc00[0][0]                  
__________________________________________________________________________________________________
nom_enc11 (Dense)               (None, 5)            35          nom_enc10[0][0]                  
__________________________________________________________________________________________________
nom_enc21 (Dense)               (None, 390)          198120      nom_enc20[0][0]                  
__________________________________________________________________________________________________
nom_enc31 (Dense)               (None, 6)            54          nom_enc30[0][0]                  
__________________________________________________________________________________________________
concatenate_13 (Concatenate)    (None, 16)           0           num_enc1[0][0]                   
                                                                 nom_enc01[0][0]                  
__________________________________________________________________________________________________
concatenate_14 (Concatenate)    (None, 15)           0           num_enc1[0][0]                   
                                                                 nom_enc11[0][0]                  
__________________________________________________________________________________________________
concatenate_15 (Concatenate)    (None, 400)          0           num_enc1[0][0]                   
                                                                 nom_enc21[0][0]                  
__________________________________________________________________________________________________
concatenate_16 (Concatenate)    (None, 16)           0           num_enc1[0][0]                   
                                                                 nom_enc31[0][0]                  
__________________________________________________________________________________________________
nom_enc02 (Dense)               (None, 4)            68          concatenate_13[0][0]             
__________________________________________________________________________________________________
nom_enc12 (Dense)               (None, 4)            64          concatenate_14[0][0]             
__________________________________________________________________________________________________
nom_enc22 (Dense)               (None, 273)          109473      concatenate_15[0][0]             
__________________________________________________________________________________________________
nom_enc32 (Dense)               (None, 4)            68          concatenate_16[0][0]             
__________________________________________________________________________________________________
nom_mid0 (Dense)                (None, 3)            15          nom_enc02[0][0]                  
__________________________________________________________________________________________________
nom_mid1 (Dense)                (None, 2)            10          nom_enc12[0][0]                  
__________________________________________________________________________________________________
nom_mid2 (Dense)                (None, 156)          42744       nom_enc22[0][0]                  
__________________________________________________________________________________________________
nom_mid3 (Dense)                (None, 3)            15          nom_enc32[0][0]                  
__________________________________________________________________________________________________
nom_dec00 (Dense)               (None, 4)            16          nom_mid0[0][0]                   
__________________________________________________________________________________________________
nom_dec10 (Dense)               (None, 4)            12          nom_mid1[0][0]                   
__________________________________________________________________________________________________
nom_dec20 (Dense)               (None, 273)          42861       nom_mid2[0][0]                   
__________________________________________________________________________________________________
nom_dec30 (Dense)               (None, 4)            16          nom_mid3[0][0]                   
__________________________________________________________________________________________________
concatenate_18 (Concatenate)    (None, 285)          0           nom_dec00[0][0]                  
                                                                 nom_dec10[0][0]                  
                                                                 nom_dec20[0][0]                  
                                                                 nom_dec30[0][0]                  
__________________________________________________________________________________________________
num_dec1 (Dense)                (None, 10)           2860        concatenate_18[0][0]             
__________________________________________________________________________________________________
nom_dec01 (Dense)               (None, 6)            30          nom_dec00[0][0]                  
__________________________________________________________________________________________________
nom_dec11 (Dense)               (None, 5)            25          nom_dec10[0][0]                  
__________________________________________________________________________________________________
nom_dec21 (Dense)               (None, 390)          106860      nom_dec20[0][0]                  
__________________________________________________________________________________________________
nom_dec31 (Dense)               (None, 6)            30          nom_dec30[0][0]                  
__________________________________________________________________________________________________
num_dec2 (Dense)                (None, 13)           143         num_dec1[0][0]                   
__________________________________________________________________________________________________
nom_dec02 (Dense)               (None, 8)            56          nom_dec01[0][0]                  
__________________________________________________________________________________________________
nom_dec12 (Dense)               (None, 6)            36          nom_dec11[0][0]                  
__________________________________________________________________________________________________
nom_dec22 (Dense)               (None, 507)          198237      nom_dec21[0][0]                  
__________________________________________________________________________________________________
nom_dec32 (Dense)               (None, 8)            56          nom_dec31[0][0]                  
__________________________________________________________________________________________________
num_out (Dense)                 (None, 15)           210         num_dec2[0][0]                   
__________________________________________________________________________________________________
nom_out0 (Dense)                (None, 9)            81          nom_dec02[0][0]                  
__________________________________________________________________________________________________
nom_out1 (Dense)                (None, 7)            49          nom_dec12[0][0]                  
__________________________________________________________________________________________________
nom_out2 (Dense)                (None, 623)          316484      nom_dec22[0][0]                  
__________________________________________________________________________________________________
nom_out3 (Dense)                (None, 9)            81          nom_dec32[0][0]                  
==================================================================================================
Total params: 1,335,787
Trainable params: 1,335,787
Non-trainable params: 0
__________________________________________________________________________________________________
