__________________________________________________________________________________________________
Layer (type)                    Output Shape         Param #     Connected to                     
==================================================================================================
nom_input0 (InputLayer)         (None, 9)            0                                            
__________________________________________________________________________________________________
nom_input1 (InputLayer)         (None, 7)            0                                            
__________________________________________________________________________________________________
nom_input2 (InputLayer)         (None, 623)          0                                            
__________________________________________________________________________________________________
nom_input3 (InputLayer)         (None, 9)            0                                            
__________________________________________________________________________________________________
num_input (InputLayer)          (None, 15)           0                                            
__________________________________________________________________________________________________
nom_enc00 (Dense)               (None, 8)            80          nom_input0[0][0]                 
__________________________________________________________________________________________________
nom_enc10 (Dense)               (None, 6)            48          nom_input1[0][0]                 
__________________________________________________________________________________________________
nom_enc20 (Dense)               (None, 507)          316368      nom_input2[0][0]                 
__________________________________________________________________________________________________
nom_enc30 (Dense)               (None, 8)            80          nom_input3[0][0]                 
__________________________________________________________________________________________________
num_enc0 (Dense)                (None, 13)           208         num_input[0][0]                  
__________________________________________________________________________________________________
nom_enc01 (Dense)               (None, 6)            54          nom_enc00[0][0]                  
__________________________________________________________________________________________________
nom_enc11 (Dense)               (None, 5)            35          nom_enc10[0][0]                  
__________________________________________________________________________________________________
nom_enc21 (Dense)               (None, 390)          198120      nom_enc20[0][0]                  
__________________________________________________________________________________________________
nom_enc31 (Dense)               (None, 6)            54          nom_enc30[0][0]                  
__________________________________________________________________________________________________
num_enc1 (Dense)                (None, 10)           140         num_enc0[0][0]                   
__________________________________________________________________________________________________
concatenate_63 (Concatenate)    (None, 407)          0           nom_enc01[0][0]                  
                                                                 nom_enc11[0][0]                  
                                                                 nom_enc21[0][0]                  
                                                                 nom_enc31[0][0]                  
__________________________________________________________________________________________________
num_enc2 (Dense)                (None, 7)            77          num_enc1[0][0]                   
__________________________________________________________________________________________________
nom_jenc0 (Dense)               (None, 284)          115872      concatenate_63[0][0]             
__________________________________________________________________________________________________
num_mid (Dense)                 (None, 4)            32          num_enc2[0][0]                   
__________________________________________________________________________________________________
nom_jmid (Dense)                (None, 162)          46170       nom_jenc0[0][0]                  
__________________________________________________________________________________________________
num_dec0 (Dense)                (None, 7)            35          num_mid[0][0]                    
__________________________________________________________________________________________________
nom_jdec0 (Dense)               (None, 284)          46292       nom_jmid[0][0]                   
__________________________________________________________________________________________________
num_dec1 (Dense)                (None, 10)           80          num_dec0[0][0]                   
__________________________________________________________________________________________________
nom_dec01 (Dense)               (None, 6)            1710        nom_jdec0[0][0]                  
__________________________________________________________________________________________________
nom_dec11 (Dense)               (None, 5)            1425        nom_jdec0[0][0]                  
__________________________________________________________________________________________________
nom_dec21 (Dense)               (None, 390)          111150      nom_jdec0[0][0]                  
__________________________________________________________________________________________________
nom_dec31 (Dense)               (None, 6)            1710        nom_jdec0[0][0]                  
__________________________________________________________________________________________________
num_dec2 (Dense)                (None, 13)           143         num_dec1[0][0]                   
__________________________________________________________________________________________________
nom_dec02 (Dense)               (None, 8)            56          nom_dec01[0][0]                  
__________________________________________________________________________________________________
nom_dec12 (Dense)               (None, 6)            36          nom_dec11[0][0]                  
__________________________________________________________________________________________________
nom_dec22 (Dense)               (None, 507)          198237      nom_dec21[0][0]                  
__________________________________________________________________________________________________
nom_dec32 (Dense)               (None, 8)            56          nom_dec31[0][0]                  
__________________________________________________________________________________________________
num_out (Dense)                 (None, 15)           210         num_dec2[0][0]                   
__________________________________________________________________________________________________
nom_out0 (Dense)                (None, 9)            81          nom_dec02[0][0]                  
__________________________________________________________________________________________________
nom_out1 (Dense)                (None, 7)            49          nom_dec12[0][0]                  
__________________________________________________________________________________________________
nom_out2 (Dense)                (None, 623)          316484      nom_dec22[0][0]                  
__________________________________________________________________________________________________
nom_out3 (Dense)                (None, 9)            81          nom_dec32[0][0]                  
==================================================================================================
Total params: 1,355,173
Trainable params: 1,355,173
Non-trainable params: 0
__________________________________________________________________________________________________
