__________________________________________________________________________________________________
Layer (type)                    Output Shape         Param #     Connected to                     
==================================================================================================
num_input (InputLayer)          (None, 15)           0                                            
__________________________________________________________________________________________________
nom_input0 (InputLayer)         (None, 9)            0                                            
__________________________________________________________________________________________________
nom_input1 (InputLayer)         (None, 7)            0                                            
__________________________________________________________________________________________________
nom_input2 (InputLayer)         (None, 623)          0                                            
__________________________________________________________________________________________________
nom_input3 (InputLayer)         (None, 9)            0                                            
__________________________________________________________________________________________________
concatenate_64 (Concatenate)    (None, 24)           0           num_input[0][0]                  
                                                                 nom_input0[0][0]                 
__________________________________________________________________________________________________
concatenate_65 (Concatenate)    (None, 22)           0           num_input[0][0]                  
                                                                 nom_input1[0][0]                 
__________________________________________________________________________________________________
concatenate_66 (Concatenate)    (None, 638)          0           num_input[0][0]                  
                                                                 nom_input2[0][0]                 
__________________________________________________________________________________________________
concatenate_67 (Concatenate)    (None, 24)           0           num_input[0][0]                  
                                                                 nom_input3[0][0]                 
__________________________________________________________________________________________________
nom_enc00 (Dense)               (None, 8)            200         concatenate_64[0][0]             
__________________________________________________________________________________________________
nom_enc10 (Dense)               (None, 6)            138         concatenate_65[0][0]             
__________________________________________________________________________________________________
nom_enc20 (Dense)               (None, 507)          323973      concatenate_66[0][0]             
__________________________________________________________________________________________________
nom_enc30 (Dense)               (None, 8)            200         concatenate_67[0][0]             
__________________________________________________________________________________________________
concatenate_68 (Concatenate)    (None, 529)          0           nom_enc00[0][0]                  
                                                                 nom_enc10[0][0]                  
                                                                 nom_enc20[0][0]                  
                                                                 nom_enc30[0][0]                  
__________________________________________________________________________________________________
nom_jenc0 (Dense)               (None, 405)          214650      concatenate_68[0][0]             
__________________________________________________________________________________________________
nom_jenc1 (Dense)               (None, 284)          115304      nom_jenc0[0][0]                  
__________________________________________________________________________________________________
nom_jmid (Dense)                (None, 162)          46170       nom_jenc1[0][0]                  
__________________________________________________________________________________________________
nom_jdec0 (Dense)               (None, 284)          46292       nom_jmid[0][0]                   
__________________________________________________________________________________________________
nom_jdec1 (Dense)               (None, 405)          115425      nom_jdec0[0][0]                  
__________________________________________________________________________________________________
nom_dec02 (Dense)               (None, 8)            3248        nom_jdec1[0][0]                  
__________________________________________________________________________________________________
nom_dec12 (Dense)               (None, 6)            2436        nom_jdec1[0][0]                  
__________________________________________________________________________________________________
nom_dec22 (Dense)               (None, 507)          205842      nom_jdec1[0][0]                  
__________________________________________________________________________________________________
nom_dec32 (Dense)               (None, 8)            3248        nom_jdec1[0][0]                  
__________________________________________________________________________________________________
concatenate_69 (Concatenate)    (None, 529)          0           nom_dec02[0][0]                  
                                                                 nom_dec12[0][0]                  
                                                                 nom_dec22[0][0]                  
                                                                 nom_dec32[0][0]                  
__________________________________________________________________________________________________
num_out (Dense)                 (None, 15)           7950        concatenate_69[0][0]             
__________________________________________________________________________________________________
nom_out0 (Dense)                (None, 9)            81          nom_dec02[0][0]                  
__________________________________________________________________________________________________
nom_out1 (Dense)                (None, 7)            49          nom_dec12[0][0]                  
__________________________________________________________________________________________________
nom_out2 (Dense)                (None, 623)          316484      nom_dec22[0][0]                  
__________________________________________________________________________________________________
nom_out3 (Dense)                (None, 9)            81          nom_dec32[0][0]                  
==================================================================================================
Total params: 1,401,771
Trainable params: 1,401,771
Non-trainable params: 0
__________________________________________________________________________________________________
