__________________________________________________________________________________________________
Layer (type)                    Output Shape         Param #     Connected to                     
==================================================================================================
nom_input0 (InputLayer)         (None, 9)            0                                            
__________________________________________________________________________________________________
nom_input1 (InputLayer)         (None, 7)            0                                            
__________________________________________________________________________________________________
nom_input2 (InputLayer)         (None, 623)          0                                            
__________________________________________________________________________________________________
nom_input3 (InputLayer)         (None, 9)            0                                            
__________________________________________________________________________________________________
num_input (InputLayer)          (None, 15)           0                                            
__________________________________________________________________________________________________
concatenate_77 (Concatenate)    (None, 648)          0           nom_input0[0][0]                 
                                                                 nom_input1[0][0]                 
                                                                 nom_input2[0][0]                 
                                                                 nom_input3[0][0]                 
__________________________________________________________________________________________________
concatenate_78 (Concatenate)    (None, 663)          0           num_input[0][0]                  
                                                                 concatenate_77[0][0]             
__________________________________________________________________________________________________
nom_jenc0 (Dense)               (None, 527)          349928      concatenate_78[0][0]             
__________________________________________________________________________________________________
nom_jenc1 (Dense)               (None, 405)          213840      nom_jenc0[0][0]                  
__________________________________________________________________________________________________
nom_jenc2 (Dense)               (None, 284)          115304      nom_jenc1[0][0]                  
__________________________________________________________________________________________________
nom_jmid (Dense)                (None, 162)          46170       nom_jenc2[0][0]                  
__________________________________________________________________________________________________
nom_jdec0 (Dense)               (None, 284)          46292       nom_jmid[0][0]                   
__________________________________________________________________________________________________
nom_jdec1 (Dense)               (None, 405)          115425      nom_jdec0[0][0]                  
__________________________________________________________________________________________________
nom_jdec2 (Dense)               (None, 527)          213962      nom_jdec1[0][0]                  
__________________________________________________________________________________________________
num_out (Dense)                 (None, 15)           7920        nom_jdec2[0][0]                  
__________________________________________________________________________________________________
nom_out0 (Dense)                (None, 9)            4752        nom_jdec2[0][0]                  
__________________________________________________________________________________________________
nom_out1 (Dense)                (None, 7)            3696        nom_jdec2[0][0]                  
__________________________________________________________________________________________________
nom_out2 (Dense)                (None, 623)          328944      nom_jdec2[0][0]                  
__________________________________________________________________________________________________
nom_out3 (Dense)                (None, 9)            4752        nom_jdec2[0][0]                  
==================================================================================================
Total params: 1,450,985
Trainable params: 1,450,985
Non-trainable params: 0
__________________________________________________________________________________________________
