__________________________________________________________________________________________________
Layer (type)                    Output Shape         Param #     Connected to                     
==================================================================================================
num_input (InputLayer)          (None, 15)           0                                            
__________________________________________________________________________________________________
nom_input0 (InputLayer)         (None, 9)            0                                            
__________________________________________________________________________________________________
nom_input1 (InputLayer)         (None, 7)            0                                            
__________________________________________________________________________________________________
nom_input2 (InputLayer)         (None, 623)          0                                            
__________________________________________________________________________________________________
nom_input3 (InputLayer)         (None, 9)            0                                            
__________________________________________________________________________________________________
concatenate_1 (Concatenate)     (None, 24)           0           num_input[0][0]                  
                                                                 nom_input0[0][0]                 
__________________________________________________________________________________________________
concatenate_2 (Concatenate)     (None, 22)           0           num_input[0][0]                  
                                                                 nom_input1[0][0]                 
__________________________________________________________________________________________________
concatenate_3 (Concatenate)     (None, 638)          0           num_input[0][0]                  
                                                                 nom_input2[0][0]                 
__________________________________________________________________________________________________
concatenate_4 (Concatenate)     (None, 24)           0           num_input[0][0]                  
                                                                 nom_input3[0][0]                 
__________________________________________________________________________________________________
nom_enc00 (Dense)               (None, 8)            200         concatenate_1[0][0]              
__________________________________________________________________________________________________
nom_enc10 (Dense)               (None, 6)            138         concatenate_2[0][0]              
__________________________________________________________________________________________________
nom_enc20 (Dense)               (None, 507)          323973      concatenate_3[0][0]              
__________________________________________________________________________________________________
nom_enc30 (Dense)               (None, 8)            200         concatenate_4[0][0]              
__________________________________________________________________________________________________
nom_enc01 (Dense)               (None, 6)            54          nom_enc00[0][0]                  
__________________________________________________________________________________________________
nom_enc11 (Dense)               (None, 5)            35          nom_enc10[0][0]                  
__________________________________________________________________________________________________
nom_enc21 (Dense)               (None, 390)          198120      nom_enc20[0][0]                  
__________________________________________________________________________________________________
nom_enc31 (Dense)               (None, 6)            54          nom_enc30[0][0]                  
__________________________________________________________________________________________________
nom_enc02 (Dense)               (None, 4)            28          nom_enc01[0][0]                  
__________________________________________________________________________________________________
nom_enc12 (Dense)               (None, 4)            24          nom_enc11[0][0]                  
__________________________________________________________________________________________________
nom_enc22 (Dense)               (None, 273)          106743      nom_enc21[0][0]                  
__________________________________________________________________________________________________
nom_enc32 (Dense)               (None, 4)            28          nom_enc31[0][0]                  
__________________________________________________________________________________________________
nom_mid0 (Dense)                (None, 3)            15          nom_enc02[0][0]                  
__________________________________________________________________________________________________
nom_mid1 (Dense)                (None, 2)            10          nom_enc12[0][0]                  
__________________________________________________________________________________________________
nom_mid2 (Dense)                (None, 156)          42744       nom_enc22[0][0]                  
__________________________________________________________________________________________________
nom_mid3 (Dense)                (None, 3)            15          nom_enc32[0][0]                  
__________________________________________________________________________________________________
nom_dec00 (Dense)               (None, 4)            16          nom_mid0[0][0]                   
__________________________________________________________________________________________________
nom_dec10 (Dense)               (None, 4)            12          nom_mid1[0][0]                   
__________________________________________________________________________________________________
nom_dec20 (Dense)               (None, 273)          42861       nom_mid2[0][0]                   
__________________________________________________________________________________________________
nom_dec30 (Dense)               (None, 4)            16          nom_mid3[0][0]                   
__________________________________________________________________________________________________
nom_dec01 (Dense)               (None, 6)            30          nom_dec00[0][0]                  
__________________________________________________________________________________________________
nom_dec11 (Dense)               (None, 5)            25          nom_dec10[0][0]                  
__________________________________________________________________________________________________
nom_dec21 (Dense)               (None, 390)          106860      nom_dec20[0][0]                  
__________________________________________________________________________________________________
nom_dec31 (Dense)               (None, 6)            30          nom_dec30[0][0]                  
__________________________________________________________________________________________________
nom_dec02 (Dense)               (None, 8)            56          nom_dec01[0][0]                  
__________________________________________________________________________________________________
nom_dec12 (Dense)               (None, 6)            36          nom_dec11[0][0]                  
__________________________________________________________________________________________________
nom_dec22 (Dense)               (None, 507)          198237      nom_dec21[0][0]                  
__________________________________________________________________________________________________
nom_dec32 (Dense)               (None, 8)            56          nom_dec31[0][0]                  
__________________________________________________________________________________________________
concatenate_6 (Concatenate)     (None, 529)          0           nom_dec02[0][0]                  
                                                                 nom_dec12[0][0]                  
                                                                 nom_dec22[0][0]                  
                                                                 nom_dec32[0][0]                  
__________________________________________________________________________________________________
num_out (Dense)                 (None, 15)           7950        concatenate_6[0][0]              
__________________________________________________________________________________________________
nom_out0 (Dense)                (None, 9)            81          nom_dec02[0][0]                  
__________________________________________________________________________________________________
nom_out1 (Dense)                (None, 7)            49          nom_dec12[0][0]                  
__________________________________________________________________________________________________
nom_out2 (Dense)                (None, 623)          316484      nom_dec22[0][0]                  
__________________________________________________________________________________________________
nom_out3 (Dense)                (None, 9)            81          nom_dec32[0][0]                  
==================================================================================================
Total params: 1,345,261
Trainable params: 1,345,261
Non-trainable params: 0
__________________________________________________________________________________________________
