__________________________________________________________________________________________________
Layer (type)                    Output Shape         Param #     Connected to                     
==================================================================================================
num_input (InputLayer)          (None, 15)           0                                            
__________________________________________________________________________________________________
nom_input0 (InputLayer)         (None, 9)            0                                            
__________________________________________________________________________________________________
nom_input1 (InputLayer)         (None, 7)            0                                            
__________________________________________________________________________________________________
nom_input2 (InputLayer)         (None, 623)          0                                            
__________________________________________________________________________________________________
nom_input3 (InputLayer)         (None, 9)            0                                            
__________________________________________________________________________________________________
concatenate_26 (Concatenate)    (None, 24)           0           num_input[0][0]                  
                                                                 nom_input0[0][0]                 
__________________________________________________________________________________________________
concatenate_27 (Concatenate)    (None, 22)           0           num_input[0][0]                  
                                                                 nom_input1[0][0]                 
__________________________________________________________________________________________________
concatenate_28 (Concatenate)    (None, 638)          0           num_input[0][0]                  
                                                                 nom_input2[0][0]                 
__________________________________________________________________________________________________
concatenate_29 (Concatenate)    (None, 24)           0           num_input[0][0]                  
                                                                 nom_input3[0][0]                 
__________________________________________________________________________________________________
nom_enc00 (Dense)               (None, 8)            200         concatenate_26[0][0]             
__________________________________________________________________________________________________
nom_enc10 (Dense)               (None, 6)            138         concatenate_27[0][0]             
__________________________________________________________________________________________________
nom_enc20 (Dense)               (None, 507)          323973      concatenate_28[0][0]             
__________________________________________________________________________________________________
nom_enc30 (Dense)               (None, 8)            200         concatenate_29[0][0]             
__________________________________________________________________________________________________
nom_enc01 (Dense)               (None, 6)            54          nom_enc00[0][0]                  
__________________________________________________________________________________________________
nom_enc11 (Dense)               (None, 5)            35          nom_enc10[0][0]                  
__________________________________________________________________________________________________
nom_enc21 (Dense)               (None, 390)          198120      nom_enc20[0][0]                  
__________________________________________________________________________________________________
nom_enc31 (Dense)               (None, 6)            54          nom_enc30[0][0]                  
__________________________________________________________________________________________________
nom_enc02 (Dense)               (None, 4)            28          nom_enc01[0][0]                  
__________________________________________________________________________________________________
nom_enc12 (Dense)               (None, 4)            24          nom_enc11[0][0]                  
__________________________________________________________________________________________________
nom_enc22 (Dense)               (None, 273)          106743      nom_enc21[0][0]                  
__________________________________________________________________________________________________
nom_enc32 (Dense)               (None, 4)            28          nom_enc31[0][0]                  
__________________________________________________________________________________________________
concatenate_30 (Concatenate)    (None, 285)          0           nom_enc02[0][0]                  
                                                                 nom_enc12[0][0]                  
                                                                 nom_enc22[0][0]                  
                                                                 nom_enc32[0][0]                  
__________________________________________________________________________________________________
nom_jmid (Dense)                (None, 162)          46332       concatenate_30[0][0]             
__________________________________________________________________________________________________
nom_dec00 (Dense)               (None, 4)            652         nom_jmid[0][0]                   
__________________________________________________________________________________________________
nom_dec10 (Dense)               (None, 4)            652         nom_jmid[0][0]                   
__________________________________________________________________________________________________
nom_dec20 (Dense)               (None, 273)          44499       nom_jmid[0][0]                   
__________________________________________________________________________________________________
nom_dec30 (Dense)               (None, 4)            652         nom_jmid[0][0]                   
__________________________________________________________________________________________________
nom_dec01 (Dense)               (None, 6)            30          nom_dec00[0][0]                  
__________________________________________________________________________________________________
nom_dec11 (Dense)               (None, 5)            25          nom_dec10[0][0]                  
__________________________________________________________________________________________________
nom_dec21 (Dense)               (None, 390)          106860      nom_dec20[0][0]                  
__________________________________________________________________________________________________
nom_dec31 (Dense)               (None, 6)            30          nom_dec30[0][0]                  
__________________________________________________________________________________________________
nom_dec02 (Dense)               (None, 8)            56          nom_dec01[0][0]                  
__________________________________________________________________________________________________
nom_dec12 (Dense)               (None, 6)            36          nom_dec11[0][0]                  
__________________________________________________________________________________________________
nom_dec22 (Dense)               (None, 507)          198237      nom_dec21[0][0]                  
__________________________________________________________________________________________________
nom_dec32 (Dense)               (None, 8)            56          nom_dec31[0][0]                  
__________________________________________________________________________________________________
concatenate_31 (Concatenate)    (None, 529)          0           nom_dec02[0][0]                  
                                                                 nom_dec12[0][0]                  
                                                                 nom_dec22[0][0]                  
                                                                 nom_dec32[0][0]                  
__________________________________________________________________________________________________
num_out (Dense)                 (None, 15)           7950        concatenate_31[0][0]             
__________________________________________________________________________________________________
nom_out0 (Dense)                (None, 9)            81          nom_dec02[0][0]                  
__________________________________________________________________________________________________
nom_out1 (Dense)                (None, 7)            49          nom_dec12[0][0]                  
__________________________________________________________________________________________________
nom_out2 (Dense)                (None, 623)          316484      nom_dec22[0][0]                  
__________________________________________________________________________________________________
nom_out3 (Dense)                (None, 9)            81          nom_dec32[0][0]                  
==================================================================================================
Total params: 1,352,359
Trainable params: 1,352,359
Non-trainable params: 0
__________________________________________________________________________________________________
