__________________________________________________________________________________________________
Layer (type)                    Output Shape         Param #     Connected to                     
==================================================================================================
nom_input0 (InputLayer)         (None, 9)            0                                            
__________________________________________________________________________________________________
nom_input1 (InputLayer)         (None, 7)            0                                            
__________________________________________________________________________________________________
nom_input2 (InputLayer)         (None, 623)          0                                            
__________________________________________________________________________________________________
nom_input3 (InputLayer)         (None, 9)            0                                            
__________________________________________________________________________________________________
num_input (InputLayer)          (None, 15)           0                                            
__________________________________________________________________________________________________
nom_enc00 (Dense)               (None, 8)            80          nom_input0[0][0]                 
__________________________________________________________________________________________________
nom_enc10 (Dense)               (None, 6)            48          nom_input1[0][0]                 
__________________________________________________________________________________________________
nom_enc20 (Dense)               (None, 507)          316368      nom_input2[0][0]                 
__________________________________________________________________________________________________
nom_enc30 (Dense)               (None, 8)            80          nom_input3[0][0]                 
__________________________________________________________________________________________________
num_enc0 (Dense)                (None, 13)           208         num_input[0][0]                  
__________________________________________________________________________________________________
concatenate_72 (Concatenate)    (None, 529)          0           nom_enc00[0][0]                  
                                                                 nom_enc10[0][0]                  
                                                                 nom_enc20[0][0]                  
                                                                 nom_enc30[0][0]                  
__________________________________________________________________________________________________
num_enc1 (Dense)                (None, 10)           140         num_enc0[0][0]                   
__________________________________________________________________________________________________
nom_jenc0 (Dense)               (None, 405)          214650      concatenate_72[0][0]             
__________________________________________________________________________________________________
concatenate_73 (Concatenate)    (None, 415)          0           num_enc1[0][0]                   
                                                                 nom_jenc0[0][0]                  
__________________________________________________________________________________________________
nom_jenc1 (Dense)               (None, 284)          118144      concatenate_73[0][0]             
__________________________________________________________________________________________________
nom_jmid (Dense)                (None, 162)          46170       nom_jenc1[0][0]                  
__________________________________________________________________________________________________
nom_jdec0 (Dense)               (None, 284)          46292       nom_jmid[0][0]                   
__________________________________________________________________________________________________
num_dec1 (Dense)                (None, 10)           2850        nom_jdec0[0][0]                  
__________________________________________________________________________________________________
nom_jdec1 (Dense)               (None, 405)          115425      nom_jdec0[0][0]                  
__________________________________________________________________________________________________
num_dec2 (Dense)                (None, 13)           143         num_dec1[0][0]                   
__________________________________________________________________________________________________
nom_dec02 (Dense)               (None, 8)            3248        nom_jdec1[0][0]                  
__________________________________________________________________________________________________
nom_dec12 (Dense)               (None, 6)            2436        nom_jdec1[0][0]                  
__________________________________________________________________________________________________
nom_dec22 (Dense)               (None, 507)          205842      nom_jdec1[0][0]                  
__________________________________________________________________________________________________
nom_dec32 (Dense)               (None, 8)            3248        nom_jdec1[0][0]                  
__________________________________________________________________________________________________
num_out (Dense)                 (None, 15)           210         num_dec2[0][0]                   
__________________________________________________________________________________________________
nom_out0 (Dense)                (None, 9)            81          nom_dec02[0][0]                  
__________________________________________________________________________________________________
nom_out1 (Dense)                (None, 7)            49          nom_dec12[0][0]                  
__________________________________________________________________________________________________
nom_out2 (Dense)                (None, 623)          316484      nom_dec22[0][0]                  
__________________________________________________________________________________________________
nom_out3 (Dense)                (None, 9)            81          nom_dec32[0][0]                  
==================================================================================================
Total params: 1,392,277
Trainable params: 1,392,277
Non-trainable params: 0
__________________________________________________________________________________________________
