__________________________________________________________________________________________________
Layer (type)                    Output Shape         Param #     Connected to                     
==================================================================================================
nom_input0 (InputLayer)         (None, 9)            0                                            
__________________________________________________________________________________________________
nom_input1 (InputLayer)         (None, 7)            0                                            
__________________________________________________________________________________________________
nom_input2 (InputLayer)         (None, 623)          0                                            
__________________________________________________________________________________________________
nom_input3 (InputLayer)         (None, 9)            0                                            
__________________________________________________________________________________________________
num_input (InputLayer)          (None, 15)           0                                            
__________________________________________________________________________________________________
concatenate_79 (Concatenate)    (None, 648)          0           nom_input0[0][0]                 
                                                                 nom_input1[0][0]                 
                                                                 nom_input2[0][0]                 
                                                                 nom_input3[0][0]                 
__________________________________________________________________________________________________
num_enc0 (Dense)                (None, 13)           208         num_input[0][0]                  
__________________________________________________________________________________________________
nom_jenc0 (Dense)               (None, 527)          342023      concatenate_79[0][0]             
__________________________________________________________________________________________________
concatenate_80 (Concatenate)    (None, 540)          0           num_enc0[0][0]                   
                                                                 nom_jenc0[0][0]                  
__________________________________________________________________________________________________
nom_jenc1 (Dense)               (None, 405)          219105      concatenate_80[0][0]             
__________________________________________________________________________________________________
nom_jenc2 (Dense)               (None, 284)          115304      nom_jenc1[0][0]                  
__________________________________________________________________________________________________
nom_jmid (Dense)                (None, 162)          46170       nom_jenc2[0][0]                  
__________________________________________________________________________________________________
nom_jdec0 (Dense)               (None, 284)          46292       nom_jmid[0][0]                   
__________________________________________________________________________________________________
nom_jdec1 (Dense)               (None, 405)          115425      nom_jdec0[0][0]                  
__________________________________________________________________________________________________
num_dec2 (Dense)                (None, 13)           5278        nom_jdec1[0][0]                  
__________________________________________________________________________________________________
nom_jdec2 (Dense)               (None, 527)          213962      nom_jdec1[0][0]                  
__________________________________________________________________________________________________
num_out (Dense)                 (None, 15)           210         num_dec2[0][0]                   
__________________________________________________________________________________________________
nom_out0 (Dense)                (None, 9)            4752        nom_jdec2[0][0]                  
__________________________________________________________________________________________________
nom_out1 (Dense)                (None, 7)            3696        nom_jdec2[0][0]                  
__________________________________________________________________________________________________
nom_out2 (Dense)                (None, 623)          328944      nom_jdec2[0][0]                  
__________________________________________________________________________________________________
nom_out3 (Dense)                (None, 9)            4752        nom_jdec2[0][0]                  
==================================================================================================
Total params: 1,446,121
Trainable params: 1,446,121
Non-trainable params: 0
__________________________________________________________________________________________________
